catdog_model_no_2.pth (torch, 373050 bytes, 54 tensors)

layer1.0.weight f4 [16, 3, 3, 3]
00000000: a1c9 773e dc1e 883d 1fb2 09be d99e 913d
00000010: 5c0c 83bc 8ba4 173e 11c0 8fbd aefd d33d
00000020: 57f6 5b3a 1f5c 7abe d601 39be 8320 51be
00000030: 7f53 703d a451 6abe 7288 96bd 9b91 76bd
00000040: c6ca ffbd 66e3 1ebe ac1a a13b cc5d 0c3e
00000050: b09e 333e a5b6 563d cc44 a7bc c912 1bbd
00000060: 6a2c ae3d ca9d d73c a91a f9bc ae8b 71bc
00000070: f258 f63d e657 a3bc 5afb c63c 7687 38bd
00000080: e608 02be 3bf7 183e 0904 96bc b057 79be
00000090: bd70 b5bc 1093 3dbd 780c e53b 44cd 0f3e
000000a0: 6844 1cbd a140 2d3e 1963 933e 5c6e 393d
000000b0: 0324 58be d8a5 e63d dd22 9dbd 93ef 103e
000000c0: d156 a9bc 1df3 31be 6ff7 4d3d beda 80bd
000000d0: d9f1 7dbd b1d3 56be 17f6 b5bd c192 87be
000000e0: c5cb 9ebd ba15 70bd 80ed 06be c0bc 59bc
000000f0: 8e62 553e 627e 433e 351c e03d eaeb 05be
00000100: a9df 4a3b 04ed 1fbe 9fb9 003e f16d e5bc
00000110: 041a 773d e784 123e efd0 693d d136 b33d
00000120: c826 46be 3a85 f73d 58c2 4cbe ed20 07be
00000130: a8c3 293e 6bf5 b53c 40aa ef3d 702c d0bc
00000140: 4cb0 553d 7a0a 72be f099 48bc 4bb1 f03d
00000150: 0ad1 7cbe 2fbf a33d b31e c13d ae00 c13d
00000160: 2099 b53d 805f bd3d 3289 6dbe a921 59be
00000170: 254d f63d e8de 18bc 24a4 523e b139 72bb
00000180: 34d3 0dbe b331 2e3e 0498 063e 7e41 31be
00000190: 0dd8 e93d 72e3 88bd d47a 18be 5c2b 533d
000001a0: 4521 4d3e 7872 a5bc 7e0e ce3d cb47 d13d
000001b0: 23fc 323d 8622 2b3e 3938 933d 9a55 1fbe
000001c0: a171 d83d 397f f83d 849b 5cbe d3a2 14be
000001d0: f07f 35be 7e8d f8bd 3d28 443e 6b31 46bd
000001e0: 6a79 5dbe f5a6 1fbc 82c6 353e 3a33 65bd
000001f0: f7b5 043e a976 553e 4fe4 dabc 3a0e 423b
00000200: 5620 c73d 6e6c 5ebe 84a8 263e 385d f8bd
00000210: 877d 463b e363 02be 173a 9d3d e315 a8bc
00000220: 2cda 15be 6661 04be 153f 36be f8ac e03c
00000230: 2315 a93c 63b8 4f3e df63 ff3d 36c1 283d
00000240: 3cf6 5fbe 1b0f 97bd f78c 4d3d 917b bf3d
00000250: 2233 2c3e f89b 823c 35c4 593d 7c33 663d
00000260: 7943 27bc 427d 033d 8636 8fbd 71ed d63d
00000270: c400 2dbe e515 25bd 700c 2bbd 9b94 3d3e
00000280: dc28 77bc 9d90 a5bc 8554 473e b896 7f3d
00000290: 755c 723e ba8f 813d 41ea 803e 4c22 823e
000002a0: 8929 893e 2603 5d3e 4593 703e f725 b93d
000002b0: 1d2f dcbd 26c8 49bd 27d9 b53c 1404 90be
000002c0: f483 fbbd 69b4 063d eee4 53bc 1bab dc3c
000002d0: f9a3 a8bd 056b d8bd 0406 8cbc 0d53 3bbe
000002e0: f9d5 0c3e 8500 923c f884 a9bb a40d 05be
000002f0: d5ca a63d 908f 063e c4fd 583e 5d32 0e3d
00000300: a4bd fd3c da96 713e e501 563e 8c79 6e3e
00000310: 0a92 fd3d cc48 b93c 671b a53b c181 d5bd
00000320: 8706 933a 4804 45be 2e21 c3bc c745 21be
00000330: ef35 22bd f911 5f3c eb17 e3bd 5167 fcbc
00000340: 2a00 c9bd b4fe 74bd 06bc c5bc 186a 5abe
00000350: 8be0 013d e6e8 febd f842 923d 9637 25be
00000360: e4cc 68be b335 d2bd 7dc3 ebbd 6e43 b6bd
00000370: e598 3c3d 77e6 dbbd 79b1 01bd 7082 8a3d
00000380: 99c6 6cbe b6d3 9b3b 9e56 c93c 036f b63c
00000390: 5979 36be 251e e53d 9fd1 42be 4d4e e0bd
000003a0: db3b 26be 18b8 0f3e 5733 3f3e e721 3d3e
000003b0: 5b8a b7bc 1735 643e 6fbd c0bc a06e 113e
000003c0: bb39 623e 0fc5 303e 0780 a73c 5194 903e
000003d0: 83ba 973e d4ce 793e 011a 563e cae1 8c3e
000003e0: 0829 4e3d 57b0 273d b6f5 9aba 840d 75bd
000003f0: 79bb 92bc e83c 5cbd 10bb 043e 891a 45be
0.24198009 0.06646511 -0.13446854 0.07110376 -0.015997104 0.14808862 -0.07019056 0.1035112
0.00083908945 -0.24449204 -0.18067107 -0.20422558 0.058673378 -0.22882706 -0.07350244 -0.060197454
-0.12489848 -0.15516433 0.0049165096 0.13707656 0.17541003 0.052420277 -0.020418547 -0.03785971
0.08504565 0.026320357 -0.03040822 -0.014742775 0.12028684 -0.019939374 0.024289776 -0.04505106
-0.12698707 0.14938061 -0.018312471 -0.24349856 -0.022148484 -0.046282828 0.006990012 0.14043146
-0.038151175 0.16919185 0.28786543 0.045271263 -0.21107487 0.11262101 -0.07672665 0.1415389
-0.02067128 -0.17377897 0.0502848 -0.06291722 -0.061998222 -0.20979191 -0.088848285 -0.26479152
-0.0775371 -0.05861447 -0.13176537 -0.01328963 0.20838377 0.1909118 0.1094288 -0.13078275
0.0030956066 -0.15617758 0.12570809 -0.028006526 0.060327545 0.1430851 0.05708402 0.0875069
-0.19350731 0.12085958 -0.19996011 -0.13196154 0.16578543 0.022211751 0.117023945 -0.025411814
0.052170083 -0.23636809 -0.012243733 0.11752566 -0.24689117 0.0799545 0.094296835 0.09423958
0.08867097 0.09246731 -0.23196867 -0.21204247 0.12026433 -0.009330489 0.20570427 -0.0036960656
-0.13850099 0.17011146 0.13143927 -0.1731014 0.114181615 -0.06684007 -0.14890605 0.051555023
0.20032223 -0.020196185 0.10061358 0.102187715 0.043697488 0.16712388 0.07188458 -0.15559998
0.10568548 0.12133641 -0.215437 -0.14515238 -0.17724586 -0.121363625 0.19155975 -0.048386972
-0.21628347 -0.0097443955 0.17751506 -0.055957057 0.12960039 0.20846047 -0.026720194 0.002961053
0.097229645 -0.2172105 0.16275221 -0.12127155 0.0030287222 -0.12733416 0.076770954 -0.020518249
-0.14634007 -0.1292778 -0.17797501 0.027426228 0.020639962 0.20285182 0.12470221 0.041199885
-0.21871275 -0.07375928 0.050183263 0.0934974 0.1681638 0.015943512 0.053165633 0.056201443
-0.010208958 0.032101877 -0.069928214 0.10494507 -0.16894823 -0.040304083 -0.04175991 0.1851372
-0.015085425 -0.020210559 0.19465835 0.062399596 0.23668082 0.06326242 0.25178722 0.2541679
0.267895 0.21583232 0.23493679 0.09040444 -0.10751174 -0.049263142 0.022198273 -0.2812811
-0.122810274 0.032886896 -0.012932999 0.026937058 -0.082344 -0.10567287 -0.017092712 -0.182934
0.13753499 0.017822513 -0.005173322 -0.12993485 0.08144156 0.13140702 0.21190554 0.034716
0.030974217 0.23592702 0.2089916 0.23288554 0.1238137 0.02261772 0.005038667 -0.10425139
0.0011217155 -0.19239914 -0.023819532 -0.15749274 -0.039602216 0.013615125 -0.11088546 -0.030810984
-0.098144844 -0.059813216 -0.024137508 -0.21329534 0.03170828 -0.124467656 0.071416795 -0.16134486
-0.2273441 -0.102641486 -0.11511896 -0.0889958 0.04604425 -0.10737317 -0.03166339 0.0676316
-0.23122634 0.0047554625 0.024577435 0.022269731 -0.17819728 0.1118739 -0.19025277 -0.10952435
-0.1623377 0.1403507 0.18671928 0.18469964 -0.02240484 0.22285877 -0.023527829 0.14202356
0.22092335 0.17262672 0.02044679 0.28238156 0.29634485 0.24395305 0.20908357 0.27516013
0.0503321 0.040939655 -0.0011822495 -0.059827343 -0.01791166 -0.053769022 0.12961984 -0.19248404

layer1.0.bias f4 [16]
00000000: 512f 31be 62f4 163e 7f97 5b3e 640e f0bd
00000010: 6377 f9bd 14ae c2bc 0f4c 21be ff18 7d3d
00000020: 9c80 823c fd89 bd3d 105b 49bb 4de9 e4bd
00000030: 649c 1cbe 675b 133e 3f9c 13be adec 693e
-0.17303206 0.14741662 0.2144451 -0.11721495 -0.12180974 -0.023764648 -0.1575167 0.061791416
0.015930466 0.09254835 -0.0030724443 -0.11177311 -0.15294033 0.14390336 -0.14415072 0.22844191

layer1.1.weight f4 [16]
00000000: 2dc5 623f 59f9 853f 2a86 7b3f 6a9f 5e3f
00000010: 90e1 883f e8e9 663f 5683 713f 06c1 463f
00000020: 4b80 6b3f a2e7 623f db16 593f 3eb3 6e3f
00000030: 2fc6 7f3f 97c8 a13f c2b6 5c3f cc99 843f
0.88582116 1.046672 0.98251593 0.86961997 1.0693836 0.9020066 0.9434103 0.7763828
0.91992635 0.88634694 0.848005 0.9324225 0.9991178 1.263934 0.86216366 1.0359435

layer1.1.bias f4 [16]
00000000: 63b1 82be f894 a3be ee31 00be 1e84 eebc
00000010: 9a26 cbbe 3a51 9cbe ceb7 68be b388 94be
00000020: 6bd2 96be 680b 89be e258 b0be f4ce a0be
00000030: b8fb 4cbe 1a03 b23c 6b7a cbbe 6eea febd
-0.2552596 -0.31949592 -0.12519047 -0.029115733 -0.39677888 -0.3053072 -0.22726366 -0.29010543
-0.2945741 -0.26766515 -0.34442812 -0.31407893 -0.20017898 0.021729995 -0.39741835 -0.12447058

layer1.1.running_mean f4 [16]
00000000: 3e8a fdbd eb86 053e d704 533e cc8b e5bd
00000010: c537 0abe eb0c 02bd 8ea4 00be a762 a63d
00000020: 2d9b 293d 6068 033e c5a0 253d eb83 c4bd
00000030: 8a95 21be 3182 0f3e c551 d0bd 8705 6e3e
-0.12379883 0.13039748 0.20607315 -0.11208305 -0.13497837 -0.0317506 -0.12562773 0.08124285
0.041407753 0.12832785 0.040436525 -0.09595474 -0.15779701 0.14014508 -0.10171846 0.23244296

layer1.1.running_var f4 [16]
00000000: cd29 923e 10de 793d 04aa 933d f3c3 283e
00000010: 9126 8a3d 7c8d e73c a478 f33f 6935 b33e
00000020: 8d45 a53e 62d7 613f cc61 623e dd56 193e
00000030: b2cc 9e3d 3382 b53d 9683 373e f78e c23d
0.28547516 0.06100279 0.07210162 0.16480999 0.06745637 0.028265707 1.9021192 0.35001686
0.32279626 0.88219273 0.22107619 0.14974542 0.07753886 0.08862724 0.1792129 0.09499925

layer2.0.weight f4 [32, 16, 3, 3]
00000000: 9696 903d 3d5c a3bd acf9 5b3d 779d 373d
00000010: 0c21 6f3d 36db 9d3d cb3f 3fbc 27f6 403d
00000020: 6a75 823d 5f6d 7dbd 0cfb 063d 06ef 703d
00000030: 080c 8cbd 7a61 a23d 5cab 7bbd 345e 7d3d
00000040: 3356 2d3d bb93 cdbd 949a 7fbd c8d7 a23c
00000050: 546e 53be ade3 6bbd d88e dbbd 68e2 49be
00000060: 73dc 18be ede9 31bd 03ba a9bd c079 3e3d
00000070: 19be edbc 83e8 9bbd 92a2 123e f59a 18bd
00000080: e0e5 89bd de4a ec3c 0c50 063d b600 1dbd
00000090: 0525 be3c 7636 793d 7ed1 05be 6c61 a73d
000000a0: 877b 0cbd 4b65 d8bd ed23 903d e8b4 a2bd
000000b0: 3287 863b 98b4 243d 1a3e b5bd 098a 10be
000000c0: 8cb7 f6bc c290 acbd fa40 25be 4d6a 34bd
000000d0: be2a 25bd 95e1 c3bd f90f 44bd 11a9 6d3b
000000e0: 4858 4abd 21c2 e33d 4241 32bd 54b9 71bd
000000f0: 4e5b 063e b2d3 b3bd 719d 05bd 7950 4f3c
00000100: 3244 f13d 9220 0c3d 063b ff3a 8c88 743d
00000110: e31a fdbc 8a3b 3a3d 3fbe f9bd 577b 76bd
00000120: 2b9f 77bd 57ea 18bd 0b1e a7bb bedd 34bd
00000130: edd5 60bd bb20 ebbd 9f88 cabc a21a 283d
00000140: d49e 27bd 76be efba d4b3 003d 1dec 58bd
00000150: 5e8b 903d 250f d738 69e7 08be 17eb 513d
00000160: c1fa c73a 8d01 01be 4c53 4dbd aa20 9abd
00000170: 5314 083d b194 6cbd 6fcf 69bd 89b6 cf3d
00000180: 5ec8 843d 4c2a 223d 6de6 8e3d 8c02 f73d
00000190: 4346 093b 4f3e 9cbd bb9c ed3d 92cf eabc
000001a0: 6d1c c1bb 737d 783d 662b 83bc 9044 06be
000001b0: a732 973d b5c9 1bbe d052 09be a347 283d
000001c0: 5aaf 02be 79f0 08be 8c17 c3bc 683c 2ebe
000001d0: 4dd5 aabd aed2 8e3d dbff eb3d f4c2 d1bd
000001e0: b02a 333d 21b4 9a3d 83d8 15be 2de9 593d
000001f0: 34ab f73d e7bd 17be f1a6 96bd ed8e 1cbd
00000200: c3a8 62bc b5d5 9cbd b47d 98bc 9e91 193d
00000210: 43d3 9d3d 08ff a93d a1be ce3d 1705 a93d
00000220: c3fb fabd f370 e0bd 701a c13d be6e 9ebd
00000230: 54ec 4cbd c249 da3d 68fd fdbd 11c3 c4bd
00000240: 497b 4bbd d101 9c3c 5c08 f3bd 97ae 8ebc
00000250: f30d 103d 2cef bd3d 04d7 fd3d 58b3 203e
00000260: 3218 203e a7f0 8d3c cc86 193d ddab 80bd
00000270: 17d0 823c 1715 973c 8059 363d 57aa 8dbd
00000280: 5c40 cdbd 5654 d3bd b88e 0abe 350c 0bbe
00000290: ce7d 39be caf6 893d 8c20 2fbe 169f 37be
000002a0: a475 2b3e 41fb d33c 0393 9e3d 81e8 95bc
000002b0: e147 3cbd d10b abbc 5561 393c 1eac f7bd
000002c0: 6756 a2bd 5419 a53d 657e 92bb 09a5 debc
000002d0: 190a c33d b5b6 c33d 221e ba3d f78c a63c
000002e0: 1dc7 19bd 066b e53d 1d82 61bb d89b 98bd
000002f0: bdd2 e7bc f0d6 0dbe 991d 3fbe f3dd 33be
00000300: 9f8f c33c e248 eebd b0e5 d7bd e6ef f73d
00000310: 1315 563d dd96 ff3c 166a 423c cbec 0c3c
00000320: 0cc9 aebd 5859 f7bd 267f 693c 3639 bdbd
00000330: 3a90 353d be5b 18bd ada4 40b9 dd96 9dbd
00000340: 26f9 11bc 1404 db3d 9852 bebd b497 22be
00000350: f169 1abd 2595 fb3c 822d e83c 1082 2dbd
00000360: 580d fabd 893c dd3b f069 09bc c5c7 253c
00000370: f531 80bb 82ea d53a f496 3b3e 36a1 ac3c
00000380: 0416 923d 5c54 1abd 7e10 163d 01e0 59bd
00000390: 1432 283c bd64 f3bc 33a9 79bd f647 5ebc
000003a0: 9537 e7bc da38 e4bd 3fcf 1ebd 26ce 85bc
000003b0: d309 c93c 8398 9b3c 978c d43d 1c1b d43d
000003c0: 4528 14bc b4a2 be3d 662e 003e cc8d aebc
000003d0: fd16 a13c ad9e e73d 03c2 1b3d f2ff 163d
000003e0: b1d9 7eb8 756c 483d 1a64 3c3d 3e29 123d
000003f0: b58e dcbd 8324 e5bd bdae d9bd e3a9 54bd
0.07059972 -0.079765774 0.053704903 0.044827905 0.058381125 0.07707827 -0.011672924 0.04710975
0.06370051 -0.061871883 0.03295426 0.0588217 -0.06838232 0.079287484 -0.061442718 0.061857417
0.042318534 -0.10037943 -0.062403277 0.019878283 -0.20647556 -0.057590175 -0.10720605 -0.19715273
-0.14927845 -0.04343598 -0.08287432 0.04650283 -0.02902131 -0.076127075 0.14319828 -0.037257154
-0.06733298 0.028844293 0.032791182 -0.038330756 0.023211012 0.060842954 -0.13068196 0.081728786
-0.034297492 -0.10566195 0.07038102 -0.079446614 0.004105472 0.04021129 -0.088497356 -0.14115156
-0.030116819 -0.08426048 -0.16138068 -0.04404669 -0.040323965 -0.09564511 -0.047866795 0.0036264102
-0.049400598 0.111210115 -0.043519266 -0.059014633 0.13120767 -0.08780612 -0.03262085 0.0126534635
0.11780585 0.03421075 0.0019472546 0.059700534 -0.03089661 0.045466937 -0.1219449 -0.06017622
-0.06045453 -0.03733286 -0.005100017 -0.044156782 -0.054891516 -0.11480852 -0.02472335 0.041041024
-0.040922955 -0.0018291015 0.031421497 -0.05295955 0.07057832 0.0001025482 -0.13369526 0.05124959
0.0015257226 -0.12598248 -0.050128266 -0.075257614 0.033222508 -0.05775899 -0.05708259 0.10142238
0.064835295 0.03959112 0.06977544 0.12061033 0.002094642 -0.07629072 0.116021596 -0.02866343
-0.005893281 0.060666513 -0.016011905 -0.13112092 0.07382708 -0.15213664 -0.13410497 0.041083943
-0.12762204 -0.13372983 -0.023814939 -0.1701523 -0.08341465 0.06973778 0.1152341 -0.102422625
0.04374188 0.07553888 -0.14633374 0.05320089 0.12093201 -0.14818536 -0.0735606 -0.038222242
-0.013834181 -0.07657949 -0.018614627 0.037492387 0.077063106 0.083005965 0.10094953 0.08252924
-0.12255051 -0.10959043 0.09428871 -0.07735966 -0.050030068 0.106585994 -0.12401849 -0.096075185
-0.04967812 0.019043835 -0.11866829 -0.017417235 0.035169553 0.09274134 0.123945266 0.15693414
0.1563423 0.017326666 0.037482068 -0.0628278 0.015968366 0.018442674 0.044518948 -0.06917255
-0.10022041 -0.1031882 -0.13531005 -0.13578875 -0.18114397 0.067365244 -0.1710226 -0.1793178
0.16744095 0.025876643 0.07742884 -0.018299343 -0.045966987 -0.020879658 0.01131471 -0.120933756
-0.07926636 0.080614716 -0.004470634 -0.027178304 0.0952341 0.09556333 0.09087779 0.02033089
-0.037543405 0.11202054 -0.003440983 -0.074516 -0.02829873 -0.13851523 -0.18663634 -0.17565136
0.023872195 -0.11634995 -0.10541856 0.12106304 0.05226619 0.031199867 0.011866113 0.008601378
-0.085344404 -0.12077588 0.014251506 -0.09239428 0.044327 -0.037196867 -0.00018371893 -0.076947905
-0.008909499 0.10694137 -0.09293097 -0.15878183 -0.03769869 0.030710766 0.028342012 -0.042360365
-0.12209576 0.006751601 -0.008387074 0.01011843 -0.0039122053 0.0016320499 0.18319303 0.021072965
0.071331054 -0.037678108 0.036636822 -0.053192142 0.010265846 -0.029711122 -0.060952377 -0.0135669615
-0.028224746 -0.11143656 -0.038771864 -0.01633365 0.024540817 0.018993622 0.10378378 0.10356733
-0.009042804 0.09308377 0.125177 -0.021307848 0.019664282 0.11309562 0.03802682 0.036865182
-6.076106e-05 0.048931558 0.0459939 0.035683863 -0.10769407 -0.11188605 -0.10629032 -0.05191983

layer2.0.bias f4 [32]
00000000: 59fe 82bc 2f84 933d de7f b9bc 1e15 0bbd
00000010: 9f07 b8bc 866c 823d 52e7 003d 6ccb 423c
00000020: 8624 aebd eada 553d 882c 58bd 01d7 cc3d
00000030: 3fd3 923d c6e6 7e3d 5e2b 393d 9ced 33bd
00000040: fe44 4f3c d8e3 98bd 4acf 0abd 263a b43d
00000050: 2c63 023d e5d7 9cbd dec6 9a3d 1c27 303d
00000060: af48 15bd c736 a33b 3628 4dbd 42de 87bd
00000070: 1d91 893d b5eb 96bd 36f2 99bc 8edb 98ba
-0.015990423 0.072029464 -0.02264398 -0.033955686 -0.022464572 0.063683555 0.031470604 0.01188932
-0.0850306 0.052210726 -0.052776843 0.10001946 0.07169198 0.0622318 0.045207374 -0.043927774
0.012650726 -0.07465333 -0.033889093 0.088001534 0.03183286 -0.07658366 0.07557462 0.043006048
-0.03644627 0.004980895 -0.050087176 -0.06634189 0.06717131 -0.07369176 -0.018792253 -0.0011662112

layer2.1.weight f4 [32]
00000000: b1cf 823f 9b81 823f e877 553f d7e0 6c3f
00000010: 3ab1 593f 6940 663f 9260 543f bfe3 7b3f
00000020: 7c0d 613f a45a 5e3f c5b4 703f 1a41 7c3f
00000030: 1c4e 843f 5079 763f e58f 883f 3bfa 803f
00000040: c389 733f b7cd 853f 74ac 803f d5e4 673f
00000050: af01 6e3f bb54 713f 0e16 803f 37c8 5c3f
00000060: 19e9 7b3f 03c6 693f e897 603f 1284 823f
00000070: 23ec 823f 887d 5e3f ee66 773f ce24 733f
1.0219632 1.0195802 0.8338609 0.9253058 0.8503605 0.8994203 0.82959855 0.9839439
0.879112 0.86857057 0.9402583 0.9853684 1.0336337 0.9627886 1.0668913 1.0076364
0.9513208 1.0453404 1.0052629 0.90583545 0.9297132 0.94269913 1.000673 0.86243004
0.98402554 0.91317767 0.8773179 1.0196555 1.0228313 0.86910295 0.96641433 0.94978034

layer2.1.bias f4 [32]
00000000: f4ca 26be b9cc 80be 35c0 9fbe 9f3b d4be
00000010: 5fb4 8fbe 3ef8 c0be 093d c6be f1b3 27be
00000020: 7d00 acbd 20c7 63be 94eb 08bf c435 f1be
00000030: c0db e4be 6a29 cdbe 310a dbbe 7914 00bf
00000040: 6e35 81be b68d e7be 932a 8abe 694b 9bbe
00000050: 174c 92be c1c7 7abd 70e3 a5be 54a4 03be
00000060: a57a 3bbe ac2d f2be 0366 8dbe ffd3 aabe
00000070: 3b10 fbbe d32b dbbd 0599 17be 8449 adbe
-0.16288358 -0.2515619 -0.3120133 -0.41451737 -0.280673 -0.37689394 -0.3871844 -0.16377236
-0.08398531 -0.22243929 -0.53484464 -0.47111332 -0.44698906 -0.4007066 -0.42781213 -0.5003124
-0.25236076 -0.45225304 -0.26985607 -0.3033097 -0.28573677 -0.061225656 -0.32400084 -0.12855655
-0.18308504 -0.4730047 -0.2761689 -0.33364865 -0.4903582 -0.10701718 -0.14804466 -0.3384515

layer2.1.running_mean f4 [32]
00000000: c803 9dbf e56a 11bf 786f 16bf 51fb 12bf
00000010: 5f17 17bf 1617 fdbe 534f 10bf 7a39 bcbe
00000020: b937 5abf f8b7 73bf f744 f7be fd26 77bf
00000030: 0cae 26bf f24d 5cbf 3adb 23bf e38e 5abf
00000040: 9eaa fbbe 9ed7 4ebf 52b0 96bf bbae ecbe
00000050: 5c3f ebbe f2a2 e9bf e618 0bbf 300e 783f
00000060: 6c80 12be 353e 28bf df88 d73d 5682 ecbe
00000070: 56cd 05bf ccf0 a8be 2514 383f 60e9 99bf
-1.2266779 -0.56803733 -0.5876384 -0.5741473 -0.59020036 -0.49431676 -0.5637104 -0.367626
-0.85241276 -0.9520259 -0.48294804 -0.96543866 -0.65109324 -0.86056435 -0.6400639 -0.8537428
-0.49153608 -0.80797756 -1.1772559 -0.4622706 -0.45946777 -1.8252852 -0.54334867 0.9689665
-0.14306802 -0.6571992 0.10524153 -0.46193188 -0.5226644 -0.32996213 0.7190574 -1.2024345

layer2.1.running_var f4 [32]
00000000: 60cc 5640 5a72 3740 65ca ee3f 276e 5e3f
00000010: 04b1 b13f 64e9 5c3f cb05 a93f 4793 0940
00000020: 94d6 5340 315e 0440 6af5 603f 3f40 d93f
00000030: 7d45 bd3f 2bbd a03f a80d 923f 5ae0 c73f
00000040: 76bf 0740 4c47 953f 3a63 ff3f 236f 943f
00000050: b13a 4740 9779 5640 f387 f53f 3926 0840
00000060: f784 ba3f b123 d13f 2f28 b93f 8872 5e3f
00000070: 4970 753f d9da 693f 5e64 dd3f b161 af3f
3.356224 2.8663545 1.8655516 0.8688683 1.3882146 0.86293626 1.3204893 2.149614
3.3099718 2.068249 0.8787447 1.6972731 1.4786831 1.255773 1.1410418 1.5615342
2.1210608 1.1662383 1.9952157 1.1596416 3.1129572 3.3511713 1.9182113 2.127333
1.4571828 1.6339017 1.4465388 0.8689351 0.9587446 0.9134956 1.7296255 1.3701688

layer3.0.weight f4 [64, 32, 3, 3]
00000000: 1451 74bc d2b6 993d 593d 143e d960 e5bd
00000010: fc2a 163d a832 b43d cf73 80bc 47c5 783d
00000020: c48e 8d3c d8f4 84bd 428f 3cbc 5991 a53c
00000030: cfd3 a0bd 9f52 8fbd 901a 63bd 785f bbbd
00000040: d9d8 f1bd 13d6 9ebd 1d61 a3bd 7468 cfbc
00000050: c307 0b3e 0332 9ebd 7a96 003e 2691 e83d
00000060: b898 67bc 392c 703d d203 1e3c 8c20 e1bd
00000070: 5c51 b2bd 1511 3b3d 1af9 d8bd 124a 0dbe
00000080: 112f c13d a127 50bc 553f 9abd c55f 593d
00000090: 4d08 1bbb fc82 5abd d26c 163d 544b 6f3d
000000a0: 9df2 49bc 0e48 613a 29f4 733d 68d0 3cbd
000000b0: 22bb c63d 1a17 33bd e3be d6bd 0dd2 67bd
000000c0: 8a53 133d f4d1 8e3d b3c5 98bd 209c 0c3e
000000d0: 604b 403d 68ec 003d 3ed5 a0bd e4af 43bc
000000e0: a4a8 783d 859c c8bd 686b 03bd cc2d debc
000000f0: 91a6 f1ba a9ce 3fbd 1a78 243d 11df 16bc
00000100: 6878 d93b ad7d 803d 5056 37bd 98a9 433d
00000110: 6ff9 0fbd cc14 b83c 1c9d a93c 1d8e e1bc
00000120: da01 b23d af8c 2a3c ca86 753d 333f b0bb
00000130: 9900 d5bc 3b46 5f3d ad61 ecbd 7417 91bd
00000140: b8f0 db3c f1e9 213d acaf 68bd 7c60 1abd
00000150: 3826 403c cbdb 85bc 4c7c f93c e24e 683d
00000160: 0daf 8ebd 531c 9a3d 8e7d 5fbd 675e 993b
00000170: 3140 a43d 72ae 2f3d 7c7b febc 957c 373c
00000180: b2ab 41bc 3f14 31bd bd1b ca3d d8fb 82bd
00000190: a59d 47bb 8325 493e 08b6 b7bd d364 a63d
000001a0: f1d6 453e 034c e5bd 2da3 5a3d d771 9bbc
000001b0: ae4e 7a3c a1b9 dc3c 88e4 2e3d 5b09 bebd
000001c0: 18ce 263e f94e 6e3d 5ad6 1cbd 4924 833e
000001d0: cca3 cb3d b0f6 a0bd 6866 a43d db20 ba3d
000001e0: a07e eaba 877f 95bc f90d dc3d e406 033d
000001f0: c0a9 a33d 1f40 9f3c 41c1 18be 079f 0a3e
00000200: 44b9 77bd fe48 173d 25eb 233e 1f14 2ebd
00000210: 00c4 193e e0f2 3f3d fdbd 023b 92a5 12bd
00000220: b9a9 8f3c af7c 063e 7bfe 00be 86f1 a03d
00000230: 2207 a63d fdbd 21be b388 393b bc4e 02bd
00000240: 8cf8 1cbd 988f d1bc 2a7e 98bd 61eb 433c
00000250: 14bc 28bd 89d7 093d 690c 383e 675b 153d
00000260: 9aa4 a13c b7df 4abe da5b febc 2bb0 ee3d
00000270: 2e15 24be 1396 0dbd fac3 1c3e 1d0c 9fbd
00000280: 9c28 2e3e 4fd7 953d b03e f9bd c2a0 4b3d
00000290: 067c 8c3c e840 8cbd 3f3d 8bbd ce1b 6d3c
000002a0: 710f 98bc f65e 9b3d bcaf 03bd 52ef c53c
000002b0: c1bf ae3c d895 d2bb a7a8 c1bd b838 91bd
000002c0: 0c57 cdbd 939a 73bd c514 ddbd 2dd6 3cbd
000002d0: 9cec 78bd 1036 8c3d 0307 5dbd e00a d13a
000002e0: efce babc fda7 0abb 4bf9 503d 6baf 703c
000002f0: 9697 c0bc 425c cbbd ccf9 bd3b d5e7 7ebd
00000300: e6cc 22bd 83d2 063c a9cc 25bd 781b 5cbd
00000310: 9e1b e3bc aaba a4bd d01f 833d 721c c03d
00000320: 442a f43b cd52 7d3c d82b d6bd 359d 1b3c
00000330: fb24 3f3d 515a 7dbd 7496 7e3d 8a56 723d
00000340: daa8 71bd bb0c 81bd ba41 593d 3b22 ab3c
00000350: bb40 00be 7e2d 7b3d 5b5c 4abd cce3 373d
00000360: 9ade 983d d4d1 0c3d 7789 70bc 139b 5fbd
00000370: 0096 2fbd e882 12bd a861 86bd b043 bebc
00000380: 0250 abbd f166 65bd eb19 603d 38d3 b03b
00000390: e567 ddbc efd9 8fbd 26b3 15bd e077 933b
000003a0: 9ff1 0bbd 31d4 2a3d 1bb2 89bc cc36 39bd
000003b0: 8ee9 07bd 370d d33c 4184 013c 17b8 9fbd
000003c0: feb7 ef3d 9bfc bdbc 9d9c a73d ec70 d6bc
000003d0: 038f 433d 2cfb 0ebd d06a 2f3d 3bd6 9d3d
000003e0: 19c6 173d 3492 9e3d dea4 c93c 3082 103c
000003f0: 2b95 843d 645d 973c 62be 9d3b 5120 473c
-0.014911909 0.07505573 0.14476527 -0.11200113 0.036662087 0.087987244 -0.015680222 0.060735013
0.01727999 -0.06492013 -0.011508765 0.020210909 -0.07852899 -0.069981806 -0.055445254 -0.091490686
-0.118089385 -0.07755675 -0.07977507 -0.025318362 0.1357718 -0.07724383 0.12557402 0.1135581
-0.014135532 0.058635924 0.0096444655 -0.10992536 -0.08706924 0.045670588 -0.10594387 -0.13797787
0.09432805 -0.012704761 -0.07531611 0.05306985 -0.002365607 -0.053347573 0.036724873 0.058421448
-0.01232591 0.0008593806 0.05955902 -0.04609719 0.097036615 -0.043723203 -0.104856275 -0.056596804
0.03596834 0.06973639 -0.07459583 0.13731432 0.046946883 0.031475455 -0.07853173 -0.011943791
0.060707703 -0.09795479 -0.032084852 -0.027121447 -0.0018436481 -0.046827946 0.0401536 -0.009208457
0.006636668 0.06273971 -0.04476005 0.04776916 -0.035149988 0.022470854 0.020704798 -0.027533585
0.086917594 0.010409518 0.059942998 -0.0053786277 -0.026001262 0.054510336 -0.11542068 -0.070845515
0.026848182 0.039529745 -0.05680816 -0.03768967 0.011727862 -0.016340157 0.030454777 0.056715854
-0.06966982 0.07524934 -0.054563098 0.004680443 0.08020056 0.042890973 -0.031064741 0.011199136
-0.0118207205 -0.0432322 0.09868572 -0.06395692 -0.0030458954 0.19643216 -0.089702666 0.081246994
0.19320275 -0.11196139 0.053378273 -0.018975182 0.015277548 0.026943984 0.042698413 -0.09279128
0.16289556 0.058180783 -0.03829036 0.2561362 0.09943351 -0.07859552 0.08027345 0.09088298
-0.001789052 -0.018249286 0.107448526 0.031988993 0.079913616 0.019439755 -0.1491747 0.13537227
-0.060479417 0.036934845 0.1600767 -0.042499658 0.15016174 0.046862483 0.0019949668 -0.03580243
0.017536985 0.131335 -0.12597077 0.07858567 0.08106829 -0.15795131 0.002831024 -0.03181337
-0.03832297 -0.025581166 -0.07445939 0.011957974 -0.04119499 0.033652816 0.17973484 0.03646412
0.019731808 -0.19811903 -0.031049658 0.11654695 -0.16023704 -0.03456695 0.15309134 -0.07765982
0.17007679 0.073164575 -0.1217016 0.049713857 0.017148983 -0.068483174 -0.06798791 0.014471961
-0.01856205 0.07586472 -0.032150015 0.024161968 0.02133167 -0.006426554 -0.09455996 -0.07090896
-0.100263685 -0.059473585 -0.10794977 -0.04610269 -0.060772523 0.06846249 -0.053961765 0.0015948676
-0.022803752 -0.0021157258 0.051018994 0.01469026 -0.023509782 -0.09929706 0.0057976004 -0.06223281
-0.039746188 0.008228901 -0.040478382 -0.053737134 -0.02772313 -0.08043416 0.06402552 0.093804255
0.0074513275 0.015461636 -0.10457581 0.00949793 0.046666127 -0.06185371 0.062155202 0.05916456
-0.05899892 -0.06301256 0.053041197 0.020890346 -0.12524693 0.06132268 -0.049404483 0.04489498
0.07464333 0.034379795 -0.014681212 -0.05459125 -0.04286766 -0.035769373 -0.06561595 -0.023225635
-0.0836487 -0.056006376 0.054712217 0.005396273 -0.02702708 -0.070239894 -0.036547802 0.004500374
-0.034165975 0.041706268 -0.01680856 -0.045218274 -0.03318172 0.025763137 0.007905067 -0.07798784
0.117050156 -0.02319174 0.081841685 -0.026176892 0.04774381 -0.034907505 0.042826474 0.07706877
0.037054155 0.0774273 0.024614748 0.008820102 0.06473764 0.01847715 0.004813955 0.012153701

layer3.0.bias f4 [64]
00000000: f064 0bbd 23a8 24bc 40cc 13bd fc6e 383d
00000010: 3631 c43c 9366 f93c 4433 453d 89ac 283c
00000020: e325 5a3d 9f90 27bd a0ab 49bd 61a6 a5bc
00000030: e7c7 503c e6e5 dcbb a80c fbbc eda2 383c
00000040: 6d9d ed3c c3b5 653d 4638 f53c 2e4a 363d
00000050: 293a 8b3c 55c8 213d 30e0 c6bb f01c 573c
00000060: ccbc 4c3d b88c 503d 8503 533d 547e 533b
00000070: c556 b4bb 0409 49bd bb5a 3b3d 0c26 683c
00000080: 35ac cebb 6e01 e1bc 9fd1 5d3d 4686 093c
00000090: 616e 703c a8c7 16bd 7ba1 10bc 90cc 54bd
000000a0: 2049 48bd cf69 1ebc 27d7 643d 9093 01bc
000000b0: fc4f 0e3d 71d1 40bd 47cb 02bc 0388 e5bc
000000c0: d1b4 72bc c3f7 a93b 85e6 2bbd 5231 863c
000000d0: e15d 10bc f497 183d ffa6 ae3c b8f5 113c
000000e0: 2135 1b3d bcfc f5bc 01a0 7cbc 5d1c 28bd
000000f0: 5583 263d ec35 d4bb 16b9 d4bc 1f87 683d
-0.03403181 -0.010049853 -0.03608346 0.045027718 0.023949247 0.030444419 0.048144594 0.010295042
0.053258788 -0.040909406 -0.04923594 -0.020220937 0.012742973 -0.006741273 -0.030645683 0.011269313
0.02900573 0.056081545 0.02993406 0.044504337 0.016995506 0.039497692 -0.0060692057 0.013129458
0.04998474 0.05091545 0.05151703 0.0032271342 -0.005503508 -0.049080864 0.045740824 0.014169227
-0.00630715 -0.027466502 0.05415499 0.00839383 0.014674754 -0.0368115 -0.008827562 -0.0519529
-0.048897862 -0.009668781 0.055869248 -0.007908717 0.034744248 -0.04707474 -0.007983035 -0.028018957
-0.014813618 0.005187006 -0.041967887 0.01638094 -0.008811445 0.03725429 0.021319864 0.008908682
0.037892465 -0.03002774 -0.015419007 -0.041042674 0.04065259 -0.0064761546 -0.025967162 0.056769487

layer3.1.weight f4 [64]
00000000: 35e0 8c3f 5a18 813f 3b82 8f3f 19e7 833f
00000010: af08 893f 49b0 813f bae7 8a3f 63ce 883f
00000020: 3d4d 8e3f c628 963f 0814 933f 3c80 803f
00000030: 0358 7f3f d932 713f 7798 753f a662 863f
00000040: 47b6 843f a531 953f 47d7 8b3f 5a2c 7f3f
00000050: 3490 7b3f 6356 913f baa2 803f 4e6e 893f
00000060: f552 8c3f 62ba 8c3f 6fe6 813f 7a7d 793f
00000070: 4e7b 723f 763b 9e3f 9a7d 7f3f 4913 873f
00000080: 5788 8c3f be81 773f 2106 893f e5a1 883f
00000090: b7a0 8c3f e9e8 8e3f 48e8 7a3f 82b7 863f
000000a0: 685f 7c3f aa50 9a3f 9475 8d3f 3925 8d3f
000000b0: 6afc 8a3f a320 8a3f d525 8d3f af06 843f
000000c0: 5d73 7b3f 0653 8c3f 43e6 7a3f 39ed 883f
000000d0: 42b7 893f 9267 8a3f 5859 803f ed1a 7d3f
000000e0: 46ad 873f 1821 803f 232b 713f 674a 793f
000000f0: 1cd4 873f 9b44 743f a604 883f b1a1 883f
1.1005923 1.0085557 1.1211618 1.03049 1.0705775 1.0131923 1.0851967 1.0687984
1.1117321 1.1731193 1.1490488 1.0039134 0.9974367 0.9421821 0.9593577 1.0498855
1.0368127 1.1655775 1.0925072 0.9967705 0.9826691 1.1354488 1.004966 1.0736787
1.0962816 1.099438 1.0148448 0.9745709 0.947194 1.2361896 0.9980103 1.055276
1.0979108 0.96682346 1.0704995 1.0674406 1.0986546 1.1164829 0.98010683 1.0524752
0.9858308 1.2055867 1.1051507 1.1026984 1.0858281 1.079121 1.102717 1.031454
0.98222905 1.0962837 0.980076 1.0697395 1.0759051 1.0812857 1.0027266 0.9886921
1.0599754 1.00101 0.94206446 0.97379154 1.0611606 0.95417184 1.0626419 1.0674344

layer3.1.bias f4 [64]
00000000: 0d75 d3bd bc65 58be 91d4 4eba bf86 07be
00000010: 5355 a1bd fd70 f4bd a25e 6e3d fe20 a1bc
00000020: fc92 93bc 3075 19be 70a7 38bc 8712 c8bd
00000030: 3b2f 4dbe 8fe0 52be 22ae aebd 03f8 07be
00000040: 0fc6 eebc 4768 abbd 29ce 823d ac41 2dbe
00000050: 525d a8bd c6df bf3d cb08 2fbe 78c8 3fbc
00000060: f4f6 93bd 502e d9bd e050 24be fd37 84be
00000070: fbcd 38be 01a2 813d 61aa 83be 2606 4d3d
00000080: 63fc 1ebb bbe4 0fbe 422c 70bd 04b3 a2bd
00000090: b99f e4bc 33c9 0abe a7c2 0fbe 2662 30be
000000a0: 4786 4ebe da72 093e d6bc 1fbe 6016 26be
000000b0: 2428 8bbd e04d 873b 10fc 03be 9001 b7bc
000000c0: f2c1 31be 8966 32be 6da9 24be 17c3 c43d
000000d0: 7348 5e3b 3e7f 0dbe 1d44 45be 1801 0abe
000000e0: 9580 d5bd e981 54be 95e9 37be 24e0 13be
000000f0: d800 11be d15b 7dbc 5a45 923d a7e3 22bd
-0.1032506 -0.21132559 -0.0007889951 -0.13234995 -0.078776024 -0.11935613 0.058195718 -0.019669052
-0.018014424 -0.1498611 -0.011270389 -0.09769159 -0.20037548 -0.20593475 -0.08529307 -0.13278203
-0.029147176 -0.08369499 0.06386978 -0.16919583 -0.082209244 0.09368853 -0.17093198 -0.01170551
-0.07224837 -0.106045365 -0.16046476 -0.25823966 -0.18047325 0.06329728 -0.25715926 0.05005469
-0.002425932 -0.14052097 -0.058635958 -0.07944301 -0.027908193 -0.13553314 -0.14039098 -0.1722494
-0.2016841 0.13422719 -0.15599379 -0.16219473 -0.067947656 0.0041291565 -0.12889123 -0.022339612
-0.1735914 -0.17421927 -0.16080256 0.09607523 0.0033917695 -0.1381807 -0.19264264 -0.1347698
-0.10424916 -0.20752682 -0.17960198 -0.14440972 -0.14160478 -0.015463785 0.07142134 -0.039767887

layer3.1.running_mean f4 [64]
00000000: aa61 f4bd 4c9b 87bd f448 85bf fe82 a5be
00000010: 7438 e2be 08fc 50bf 90c7 97bf dbc2 57be
00000020: 1314 6ebf faff d5bf a20a 7b3e ee1e 493f
00000030: 9859 4c3d 5f73 88c0 4e9f f6bc 9b8a 0bbe
00000040: 7c7d 8e3e 1cd1 293f 9ea8 f33e f18f fabd
00000050: 00d9 18c0 0b73 bcbf 0188 19bf 106c c7bf
00000060: c94f 85be 75df ccbf 7370 0cc0 1dd1 e6be
00000070: 7ad4 16c0 4b9a 17bf 3166 8bbe 171a 60bf
00000080: 1af7 c8bf 8c1c 453e f3e9 babe 9514 d3bf
00000090: 90ca 1abf 0029 4bbf 0373 e8bf f1d8 8abf
000000a0: 631a c43e e8bb c1bf 8da9 b4bf dfb5 e2bf
000000b0: 48d3 4fbe 9787 50bf be21 82bf 12aa b7bf
000000c0: ad9f 2c3e 65ca d7bf af37 45c0 c8eb 5c3e
000000d0: c531 7cbf d0c4 90bf 4d8b f9bf b547 60c0
000000e0: db71 99be fa02 e2bf 619d 0ec0 b502 02c0
000000f0: 1c75 87be ee4f 4d3f c504 8fbf 164f 17c0
-0.119326904 -0.066214174 -1.0412889 -0.32326502 -0.44183695 -0.8163457 -1.1857777 -0.21070425
-0.9299938 -1.6718743 0.24515775 0.7856282 0.04989013 -4.2640834 -0.03010526 -0.13627093
0.27830112 0.663347 0.47589582 -0.12234486 -2.3882446 -1.4722608 -0.5997315 -1.5579853
-0.26037434 -1.6005694 -2.1943634 -0.45081416 -2.3567185 -0.5921981 -0.27226403 -0.8753981
-1.570041 0.19249171 -0.36506614 -1.6490656 -0.60465336 -0.79359436 -1.8160099 -1.0847455
0.3830138 -1.513547 -1.4114243 -1.7711753 -0.20295441 -0.81456894 -1.0166547 -1.4348776
0.16857786 -1.6858641 -3.0815237 0.21574318 -0.9851344 -1.1310062 -1.9495636 -3.5043766
-0.29969677 -1.7657158 -2.2283556 -2.0314152 -0.26456535 0.8020009 -1.117333 -2.364202

layer3.1.running_var f4 [64]
00000000: 2015 b73f 1d83 9a3f bbb9 b93f ef25 a13f
00000010: c1a8 9d3f 4dec da3f dfdc fd3f 2b6d 9f3f
00000020: e4b5 b23f 357e f73f 6d98 953f aff5 8c3f
00000030: 29f3 8b3f 2839 dd40 3033 603f 4867 9f3f
00000040: f7f3 b33f 9d8e 8e3f d5fb 963f 3a37 913f
00000050: 4dec 8140 451a fc3f ef8d d33f 8a80 0c40
00000060: cfd1 ac3f 187b 0640 6384 3d40 bccb 993f
00000070: 0fb5 7540 b74d cf3f 6961 a33f 7a64 d63f
00000080: d47c 1040 a407 ad3f 23f1 923f a1c3 fd3f
00000090: d645 d53f f3f5 b23f a41b 2f40 af1f b03f
000000a0: d87e 8a3f 3470 e03f 5193 0740 9d37 2040
000000b0: d55d ab3f b666 f83f 68c7 2f40 134e 1c40
000000c0: 96a6 6f3f ab08 1940 8861 8b40 80fa 9b3f
000000d0: bb81 bc3f c1c0 fd3f 0b9d 4d40 9b22 a440
000000e0: 6f3e bc3f b1af 2340 9a9a 4c40 e7cc 8d40
000000f0: 1e1f ba3f 8c2f 8c3f 40dc c93f 4575 6140
1.4303322 1.2071263 1.4509805 1.2589701 1.2317125 1.7103363 1.983303 1.245519
1.3961759 1.933539 1.1687142 1.1012477 1.0933582 6.913227 0.87578106 1.2453394
1.4058827 1.1137272 1.1795603 1.1344979 4.0600953 1.9695517 1.652769 2.1953454
1.3501529 2.101263 2.9612052 1.20153 3.839176 1.6195592 1.2764102 1.6749413
2.257619 1.3517957 1.1479839 1.9825326 1.6661937 1.3981308 2.736062 1.3759669
1.081996 1.7534242 2.1183665 2.5033944 1.338801 1.9406345 2.7465458 2.4422653
0.93613565 2.391154 4.3556557 1.2185822 1.4727091 1.9824449 3.2127101 5.1292243
1.4706553 2.5575984 3.1969361 4.4312625 1.4540746 1.095201 1.577034 3.5227826

fc1.weight f4 [10, 576]
00000000: 5cdf 393c c296 dd3c 73af d33d 3b0c 7e3c
00000010: 8571 9e3d ebab e13c aed9 bbbd 157d febd
00000020: fd71 23be f121 533d c1f8 b23c 54c0 0ebd
00000030: 2a8d f9bc 4e1c 05be 7e75 99bd 55cb 243d
00000040: 5437 ddbc caf4 58bc c099 72bd a27b a0bd
00000050: 9c3e d43b 4bb1 ea3c a37c 84bd a3b6 6e3c
00000060: 832a 0a3e f551 903d cf37 213d 40b7 4b3d
00000070: 11ec 4a3d 6283 d4bc eec3 cabc 73b5 333c
00000080: 7c40 44bd 6df3 d6bc 8c48 d3bd a2bf 05be
00000090: 5dab bb3c d0d3 c83c d1af 2a3d cfbb 9bbc
000000a0: 1edf 7bbd a841 1f3d 31ba eb3d 0f46 ccbd
000000b0: 283f 443d eebe 03bd ffb3 16bc de55 433d
000000c0: 302a 643c d5b2 62bd b2ef bbbd bfba bd3d
000000d0: 51c9 173d cc16 123e a458 8abd fe67 e2bc
000000e0: c213 88bd d399 ff3c a96a e13d 3b1c b23d
000000f0: 2f14 633d 6ed8 ca3d a917 693d 0713 bf3c
00000100: dade f63a b260 163c f54c 9a3c 9cf6 54bd
00000110: 9002 c9bd 3d4e 043e 0ec8 b4bc 94b6 7dbd
00000120: c081 febd bf4e 14bd 3651 5d3d 9933 32bb
00000130: 475c 033e acbc 773d a7f9 8cbd 2cd8 453d
00000140: 00ce dc3b dc92 9b3c 8e9f 743c ebe3 ea3d
00000150: a7f4 913c a24f 0b3e e6d4 493d bc2a c7bd
00000160: 764e b6bd 5b46 02be af64 d53b 9166 8ebc
00000170: dcda 863d 7df4 e23b 0d66 38be 66ae 90bd
00000180: 970f df3d 1813 fe3c b3be b23c de2d 3c3d
00000190: db3c 583d 28c2 2bbd 2850 6b3c a0bd 403d
000001a0: 3ee0 b43c 3f10 9cbd 9da2 0cbe ce03 d2bd
000001b0: 8617 893d fde5 713d 1644 29bc bd7c d7bc
000001c0: 90bc 00be e728 93bd f1f3 2ebd 5bbe 833b
000001d0: 6e44 0ebd 475e 433d d855 b0ba 33f3 51bc
000001e0: ec3c ae3d 72c6 8c3d 302d 323d 478f 04bd
000001f0: 7b65 9b3d 72ea 063d 7781 513c 0d45 b4ba
00000200: dfc0 40bd 80a1 cfbc e2d2 8c3d 0794 843b
00000210: b550 e13c 4982 bdbc 7cbd 0bbe 284b cc3c
00000220: dff0 ec3d 705a 0e3e ba55 a0bd 937e b9bd
00000230: 06c6 31bd df37 91bd 0e71 7abd f478 81bd
00000240: 9dea bb3d d0b3 a93d aa05 f3bb e975 d13c
00000250: 64dd 2b3c 1778 a5bd 1c65 d1bd 088d 21be
00000260: 1246 0bbe 4c01 dd3c 7cb0 233d a20d f93d
00000270: b775 0f3d bf91 81bc bcd7 1fbd 28e7 ccbc
00000280: 7dd7 1bbe 054e 5fbe ccbf e1bd f522 9db9
00000290: 0ea6 71bc 843e 24bd 4537 9d3d 0733 cd3d
000002a0: ae1c 3abd f72c 1fbb 8361 02bd 0ef9 35bd
000002b0: ce00 76bc 9431 0b3e ec72 1abd f7e3 0fbd
000002c0: e982 2ebd acab 3ebd 4276 15bc d904 0f3d
000002d0: 8c75 28bd cc5a 893a 16a1 943d c21c 85bb
000002e0: 7db8 483d 9e81 dbbc 5797 5f3c 405d 0f3d
000002f0: f905 8a3d 23c8 81bd 6222 f53a fdbb f9bd
00000300: dfbc 9c3d 23c7 f13d 944e d83d 0374 1e3c
00000310: 00bd 253d 0167 85bc 4d2d aabc 7266 283c
00000320: 33ca ab3d bddf 0dbd 1fe0 a7bd b80c 6bbd
00000330: eac2 33bc 5f12 643d e370 c2bc 1299 33bc
00000340: 89d2 1c3b 03e2 cabb 1a44 c73c 68ce 52bd
00000350: 78d7 ae3c 50a6 1b3e 75c3 923d 20e9 133e
00000360: 1483 263d 225d 3d3b 33db c43d a6e1 023d
00000370: f6e0 a33d d11f c7bd 73bc 34bc 5ee7 edbd
00000380: 37da efbd b2b8 f6bc 93d9 253d ef7e aebd
00000390: 5c56 d83d d8b0 c83d b655 3a3e b87c 933b
000003a0: 4ada b33d aadb 433c 18ae 34bd a911 fc3c
000003b0: 2239 f53d a65c 343c 762b 093e 08b5 e53d
000003c0: 4fa4 cdbc 1a26 ae3d a811 8a3d 969e bbba
000003d0: bdcf 12bd 34f1 48bb b2a1 25bd b597 90bc
000003e0: 676c 03be 0b9a 143d 7d4c 46bc cffb 03bd
000003f0: b795 413d 0a3e 9b3d 1ecb 9dbc f7a2 193b
0.011344757 0.027049426 0.10336199 0.015505846 0.07736496 0.027547797 -0.091723785 -0.12426201
-0.15961452 0.05154604 0.02184713 -0.034851387 -0.03046282 -0.12999079 -0.07493113 0.040232975
-0.027003922 -0.013241956 -0.05922866 -0.07836081 0.00647719 0.028648993 -0.06469085 0.014569911
0.1349278 0.07046882 0.039359864 0.049735308 0.049541537 -0.025941554 -0.02475163 0.010968554
-0.04791306 -0.026239121 -0.103165716 -0.13061383 0.02290886 0.024515063 0.041671578 -0.019010453
-0.061492078 0.038880974 0.115101226 -0.099743 0.047911793 -0.032164507 -0.009198188 0.04768931
0.013926074 -0.05534633 -0.09176578 0.092641346 0.037057225 0.14266509 -0.06755188 -0.027637478
-0.066443935 0.031201279 0.11006672 0.08696791 0.05543917 0.09904562 0.05690733 0.023324503
0.0018834725 0.009178327 0.018835524 -0.051992998 -0.09814942 0.1292047 -0.02206805 -0.0619417
-0.124270916 -0.03620791 0.054032527 -0.00271914 0.1282817 0.060482666 -0.06883555 0.04830186
0.0067384243 0.018990926 0.014930619 0.11469253 0.017816855 0.13604596 0.0492753 -0.09724948
-0.08901684 -0.12722151 0.0065122466 -0.017382892 0.06584713 0.006926118 -0.1800768 -0.07064514
0.108916454 0.031014964 0.021819448 0.04594218 0.05279241 -0.04193321 0.014362372 0.04705584
0.022079583 -0.07620286 -0.13733907 -0.10254632 0.0669394 0.059057225 -0.010331174 -0.026304597
-0.12571931 -0.07185536 -0.04271311 0.004020495 -0.03473323 0.04769733 -0.0013453318 -0.012814331
0.08507714 0.06873788 0.043500125 -0.032363202 0.07587715 0.03293843 0.0127872145 -0.0013753489
-0.047058936 -0.025345564 0.0687616 0.0040459665 0.027504304 -0.023133414 -0.13646501 0.024938181
0.1156938 0.13901687 -0.07828851 -0.09057345 -0.04340174 -0.07090735 -0.061142974 -0.06321898
0.09175608 0.0828625 -0.0074164467 0.02556892 0.010489795 -0.08079546 -0.10224363 -0.15776455
-0.13600948 0.026978157 0.03996323 0.121608034 0.03502437 -0.015816567 -0.0390241 -0.025012568
-0.15218921 -0.21807106 -0.110229105 -0.0002997142 -0.014749063 -0.040098682 0.076765575 0.10019498
-0.045437507 -0.0024288276 -0.031831276 -0.04442697 -0.01501484 0.13593131 -0.037707254 -0.035129514
-0.042605314 -0.046550438 -0.009122433 0.034916732 -0.041127726 0.001047933 0.07257287 -0.004062266
0.049004067 -0.026795205 0.013646922 0.03500104 0.067394204 -0.06337001 0.0018702263 -0.12194059
0.07653212 0.118055604 0.105618626 0.009671214 0.040463448 -0.016284468 -0.020773554 0.010278331
0.08388176 -0.0346372 -0.081970446 -0.057385176 -0.010971764 0.055681583 -0.02373547 -0.010961788
0.00239292 -0.0061914935 0.024324466 -0.051466376 0.021342978 0.15200162 0.07166187 0.14444399
0.04065235 0.0028894623 0.096121214 0.031953476 0.08001892 -0.097228654 -0.011031258 -0.116163954
-0.11711543 -0.030117366 0.040490698 -0.085203044 0.10563347 0.09799355 0.18196759 0.0045009516
0.0878187 0.011954227 -0.04411134 0.03077014 0.11973788 0.011008417 0.13395485 0.112161696
-0.025102763 0.08503361 0.06741649 -0.001431423 -0.035842646 -0.0030661346 -0.040437408 -0.017650465
-0.12834321 0.03627972 -0.012103197 -0.032222565 0.04726192 0.075801924 -0.019261893 0.0023443082

fc1.bias f4 [10]
00000000: bc3f 1b3e daa8 6bbb 63ca 66bc c4b7 8a3b
00000010: 23ce 64bc 2391 2b3e a30e 3ebd 27c4 40bd
00000020: e46b 19bd a7a1 59bc
0.15161031 -0.0035958798 -0.014086339 0.0042333324 -0.013965162 0.16754584 -0.046400677 -0.047062065
-0.03745641 -0.01328317

fc2.weight f4 [2, 10]
00000000: 3aac 943e 3d97 50bd 273b 48be 7653 3f3e
00000010: 9d2c 80bd 1b9a 573e 59a6 e8bb d9e1 9bbe
00000020: dd1b 763e acc0 863e 361f 8ebe 9626 7dbc
00000030: b5a2 ad3d d661 243e 1191 803e aec4 56be
00000040: fd59 1d3b 048b a23e 0a69 923e e888 b63d
0.29037648 -0.050925482 -0.19553815 0.18684182 -0.06258509 0.2105488 -0.0070999083 -0.30445746
0.24034066 0.26318872 -0.27758187 -0.015451094 0.084782995 0.16052946 0.25110677 -0.20973465
0.0024009936 0.31746686 0.28595763 0.089128315

fc2.bias f4 [2]
00000000: 99f2 8f3c e0a4 f0bd
0.017571734 -0.117501974

exp_avg f4 [16, 3, 3, 3]
00000000: 2462 63b9 d232 0eba 4a7a fb39 f4e5 0e3a
00000010: 1511 da39 1610 963a 3a80 cc3a 1699 7f3a
00000020: 3b79 b33a cca7 aaba 6427 daba 944b 04ba
00000030: f19c d7b9 8152 1dba debf 7e39 e63d 193a
00000040: 87ef 6bb8 5ce5 fc39 40ee 25bb 1e5a 42bb
00000050: e1fe 0dbb ce7c cdba 2e42 f4ba e9e8 a5ba
00000060: d593 e3b9 8096 95ba eb83 58ba 9b01 4abc
00000070: 2105 23bc 6e50 ddbb be43 4dbc 6c7b 23bc
00000080: b68d 17bc 5828 2bbc ef54 fdbb 0448 07bc
00000090: 0808 8abc 96fa 67bc b42d 2abc 9a38 96bc
000000a0: ba1c 77bc 7a63 5dbc 6daa 8cbc a00e 62bc
000000b0: 684e 5cbc 51e3 89bc 0aca 6bbc f95e 3abc
000000c0: 9131 93bc c98c 73bc 906a 6bbc 05e5 8abc
000000d0: a69f 57bc b8bd 5ebc 5b48 82bc 749b 6dbc
000000e0: 0688 50bc 3762 88bc fe40 89bc 824c 68bc
000000f0: 0245 7abc 9ae1 86bc fde0 82bc 32e5 b2bc
00000100: 667f 9abc 0983 87bc 9e3c b8bc 59cf adbc
00000110: a2d9 92bc 8e91 a7bc 8fd2 a8bc 775f a0bc
00000120: 0276 99bc 7945 82bc f515 55bc 3a92 9dbc
00000130: 13a7 91bc 8307 6abc 1812 8abc 3faf 88bc
00000140: 86b5 7ebc 8d38 2fbb 4acc 0fbb 8dd7 e2ba
00000150: ae75 4cba 1e0f c4ba 0fbb faba 8aea 143b
00000160: 3fe4 e139 8283 cfba 8515 82bb 9f02 5fbb
00000170: cfda 3dbb 36bf 0ebb 420a 3abb 597f 56bb
00000180: a84b 473a 3ff0 7eba 793a 4bbb ca2b bbbb
00000190: 5496 acbb 68f0 abbb 2d35 89bb ae3e 9cbb
000001a0: f9d2 b2bb cf51 afba 3c36 49bb 9425 b1bb
000001b0: a2e1 9fbc 57f2 a1bc 5f74 a6bc 14fd 93bc
000001c0: 68fb 92bc 7f4d 9bbc e988 8fbc 1d3a 8ebc
000001d0: 465c a0bc 4be7 cdbc 01d2 cfbc 5016 dbbc
000001e0: 2802 c4bc 8a88 bfbc cb3b cebc 76af c1bc
000001f0: aa96 bcbc f4a6 d4bc df6c dbbc 4706 dcbc
00000200: 8744 e1bc acbd c5bc 795c c4bc c815 d0bc
00000210: 4421 babc 8701 bdbc 09df d3bc ecad 433b
00000220: 1e9d 933b 68ff 203b 5645 c23b 1138 cc3b
00000230: 4b90 bb3b 43c4 a03b 3fda c93b b9be f43b
00000240: 3531 6dbc 4f9a 48bc a7f1 5bbc 7db7 34bc
00000250: f0c3 2cbc 8678 2dbc 5dcb 39bc 2e57 22bc
00000260: fec1 0bbc afc8 02bc 5d7b babb ecd2 efbb
00000270: fbe2 a4bb 93f3 87bb 7f16 9cbb 181c afbb
00000280: 5e0c 6ebb 0b9f 36bb 5292 bb3a 629b 913a
00000290: 38be 8a3a 4ddc 903a f1a0 6b3a 1b0d 413a
000002a0: a390 813a e4f1 0d3a 722d 9639 c3f9 2f3b
000002b0: ea58 1f3b 4402 193b 7d0b 1b3b 4035 123b
000002c0: 94ab 013b 7b1b 0f3b 9956 ec3a 40fc c63a
000002d0: 7305 363b 33ea 233b aa58 183b 1068 243b
000002e0: add7 173b 339c 033b ebbe 163b d0fd fc3a
000002f0: 9757 cf3a 7887 71ba e193 9dba 3659 a5ba
00000300: 5b27 0bba a920 f6b9 4dfd 83ba 7a73 e138
00000310: 915e da38 56bf 0cba 88e1 21ba 941d 54ba
00000320: 17bc 6aba dc87 86b9 80fe 16b9 9da5 36ba
00000330: 7879 003a 2089 113a dbac 22b9 705f 81ba
00000340: 44a5 8eba 4998 91ba d599 31ba 8e8e e4b9
00000350: 9f6b 6aba a750 8538 0f5c 5c39 3220 01ba
00000360: a9c0 233b 0dcc 703b dfdb ab3b 0d26 a33a
00000370: 5650 3e3b e76c af3b 2c50 9c3a 9691 1f3b
00000380: 4dec a73b 9649 033b 2270 393b c80d 843b
00000390: 5b42 5b3a 9ef1 0a3b f822 883b 6117 703a
000003a0: d3d0 e43a 5fd6 833b 4614 473b daf1 6b3b
000003b0: 20ad 983b aca7 c63a c4b1 323b dc3d 9a3b
000003c0: 5d07 bb3a 6b78 143b 0da1 933b 76cd e13a
000003d0: 917e 573a 44e4 8a3a 4e14 153b 7e2a 9c3a
000003e0: 1ca2 893a 462c 313b 55c1 c83a 136f ab3a
000003f0: 500c cb3a 13d9 3c3a 132c 7f3a 88aa 183b
-0.00021684967 -0.0005424443 0.00047965563 0.0005451136 0.00041592927 0.0011448886 0.0015602179 0.00097502896
0.0013692746 -0.0013019978 -0.0016643819 -0.00050466624 -0.00041124926 -0.0006001369 0.00024294804 0.00058457104
-5.6251443e-05 0.00048236072 -0.002531901 -0.0029655765 -0.0021666812 -0.0015677453 -0.0018635446 -0.0012657914
-0.00043406957 -0.001141265 -0.00082594034 -0.012329484 -0.009949953 -0.0067539727 -0.012528358 -0.009978157
-0.009250095 -0.01044663 -0.007731072 -0.008256916 -0.016849533 -0.014158865 -0.010386873 -0.018337537
-0.015082533 -0.013512487 -0.01717111 -0.013797432 -0.013446428 -0.016832026 -0.014391432 -0.011375182
-0.017967971 -0.014865109 -0.014368668 -0.016954908 -0.013160622 -0.013595037 -0.015903642 -0.014502395
-0.012727743 -0.016648395 -0.016754624 -0.014178397 -0.015275242 -0.016464997 -0.015976423 -0.021837804
-0.018859576 -0.016541975 -0.022489842 -0.021217035 -0.017926041 -0.020455148 -0.020608215 -0.019576771
-0.018733028 -0.015902268 -0.013005723 -0.019234765 -0.017779863 -0.0142840175 -0.01685433 -0.016685126
-0.015546208 -0.0026736588 -0.0021941834 -0.0017306671 -0.0007799518 -0.0014958119 -0.0019129234 0.0022722804
0.000430854 -0.0015832039 -0.0039698505 -0.0034028662 -0.0028969531 -0.002178145 -0.0028387462 -0.0032729714
0.0007602521 -0.00097251305 -0.0031010194 -0.005712007 -0.005266944 -0.0052471645 -0.0041872473 -0.004768214
-0.005457279 -0.0013375821 -0.0030702492 -0.005406091 -0.01951677 -0.019768877 -0.020319162 -0.018065013
-0.017942145 -0.018957851 -0.017521339 -0.017361695 -0.01957525 -0.025134703 -0.025368692 -0.026744038
-0.02392681 -0.023380537 -0.025174996 -0.023643237 -0.023021061 -0.025958516 -0.026785312 -0.026858462
-0.027498497 -0.024138294 -0.023969876 -0.025401011 -0.02272094 -0.023072017 -0.025863187 0.0029858304
0.004504814 0.0024566296 0.0059286756 0.0062322696 0.005723988 0.0049062087 0.00616005 0.007469025
-0.014477064 -0.012243821 -0.013424314 -0.011030075 -0.010544762 -0.010587817 -0.0113399895 -0.009908481
-0.008530138 -0.007982417 -0.0056909756 -0.007318845 -0.005031941 -0.0041489094 -0.004763424 -0.005343925
-0.003632329 -0.0027865793 0.0014310575 0.001110893 0.0010585254 0.0011051983 0.0008988521 0.00073643186
0.0009885024 0.00054147677 0.0002864409 0.002685175 0.0024314472 0.0023347298 0.002365797 0.0022309572
0.0019786106 0.0021836448 0.0018031179 0.0015181378 0.0027774244 0.002501142 0.0023246207 0.002508644
0.0023169324 0.0020082116 0.002300198 0.0019301716 0.001581895 -0.0009213607 -0.0012022221 -0.0012615088
-0.00053082936 -0.0004694511 -0.0010069996 0.00010750345 0.000104126644 -0.00053690874 -0.00061752694 -0.00080915657
-0.0008954419 -0.00025659695 -0.00014399923 -0.00069674273 0.0004900913 0.0005551744 -0.00015513918 -0.0009870362
-0.0010882993 -0.0011108007 -0.0006774937 -0.0004359376 -0.00089424284 6.356957e-05 0.0002101513 -0.0004925757
0.002498666 0.0036742717 0.0052447165 0.0012447253 0.0029039583 0.0053535583 0.0011925749 0.002434825
0.005124605 0.0020032874 0.0028295596 0.004029963 0.0008364075 0.0021201144 0.004154559 0.0009158757
0.0017457254 0.0040233578 0.0030377074 0.003600231 0.00465931 0.0015156171 0.00272666 0.0047070812
0.0014269162 0.0022654783 0.0045052827 0.001722737 0.0008220459 0.0010596593 0.0022747698 0.0011914519
0.0010500583 0.0027034446 0.0015316406 0.0013079367 0.001549134 0.00072039774 0.00097340456 0.0023295004
